pytorch_digitclassification/digitclassifier_torch.pth (torch, 440701 bytes, 6 tensors)

fc1.weight f4 [128, 784]
0	0x3aee42cf	0.001817787
1	0x3a04a795	0.0005060372
2	0xbb7fbc48	-0.0039022136
3	0x3d10440d	0.03522115
4	0x3cf9394a	0.030422825
5	0xbcc5c362	-0.024141017
6	0x3bd2d549	0.006434117
7	0x3cf558c8	0.02994956
8	0x3c8f7718	0.017512843
9	0xbc2a56d5	-0.010396679
10	0xbc9ea484	-0.019365557
11	0xbcf02b04	-0.029317386
12	0xbcb94d14	-0.022619762
13	0xbc1ae0ab	-0.009452979
14	0x3cdd87b8	0.027042255
15	0xbb69d6a6	-0.003568092
16	0x3ce7d122	0.028297964
17	0xbc24697a	-0.010034913
18	0x3d07a8ff	0.03312015
19	0x3cc60dc8	0.024176493
20	0x3ce329b6	0.02772985
21	0x3d008861	0.03138006
22	0xbc8e351e	-0.017359313
23	0x3c37049e	0.011170534
24	0x3d1687a9	0.03675047
25	0xbbc86b01	-0.0061162715
26	0x3d052d63	0.032513987
27	0x3c6ceba6	0.01446048
28	0xbc4af078	-0.012386434
29	0xbca64fbe	-0.020301696
30	0xbc703793	-0.014661687
31	0xbc4dbd5e	-0.012557356
32	0x3cdc52a8	0.026894882
33	0x3d0bb387	0.034106757
34	0xbc61ce98	-0.013782166
35	0x3ca6cdae	0.020361748
36	0xbc23d659	-0.009999835
37	0x3ca5cccd	0.020239258
38	0x3c95ba51	0.01827732
39	0xbc18d91d	-0.009329108
40	0xbc8aefbf	-0.016960023
41	0xbb9cb99b	-0.004782868
42	0xbb660de9	-0.0035103506
43	0xbcb8468e	-0.02249458
44	0x3bd7dc2f	0.006587527
45	0x3b9afecc	0.004730081
46	0x3d0bac5d	0.034099925
47	0x3cda636f	0.026658742
48	0x3bf20525	0.007385867
49	0x3d165c39	0.036709044
50	0x3c2bb078	0.010479085
51	0xbcc0e9b4	-0.023548938
52	0x3cb90c84	0.022588976
53	0xbca18da2	-0.019720856
54	0xbca681b6	-0.020325523
55	0x3baedc6d	0.0053363354
56	0xbbcfe61d	-0.0063445703
57	0x3c157fde	0.009124724
58	0x3ca4868e	0.020083692
59	0xbc85fad9	-0.016354965
60	0x3c4f9ca7	0.012671626
61	0xb9d16d1d	-0.00039944882
62	0xbc3b5c8a	-0.011435637
63	0x3cee0113	0.029053247
64	0x3c217e81	0.009856821
65	0x3b472696	0.003038799
66	0xbd204ddd	-0.039136756
67	0xbd0aba60	-0.033869147
68	0xbb7d1766	-0.0038618683
69	0x3bb1162e	0.0054042554
70	0xbcc1a93b	-0.023640266
71	0xbcf66a18	-0.030079886
72	0x3cb52319	0.022111462
73	0xbc9c0aba	-0.019048084
74	0xbb246d77	-0.002508966
75	0xbc72412e	-0.014786048
76	0xbc27d1eb	-0.010242919
77	0x3c4632f4	0.012097109
78	0x3c968c1a	0.018377353
79	0x3c865314	0.016397037
80	0x3b934253	0.0044939904
81	0x3d2905d5	0.041265327
82	0xbb845c72	-0.0040393407
83	0x3b8ab3df	0.004232868
84	0x3c793f01	0.015212775
85	0x3b815d1d	0.0039478675
86	0x3c9300ae	0.01794466
87	0x3c8c74b2	0.017145488
88	0x3cb30f16	0.02185778
89	0x3cb04077	0.021515114
90	0x3c8e0c29	0.017339783
91	0xbd3463ec	-0.044040605
92	0xbd829b1f	-0.06377243
93	0xbd1d4ae7	-0.03840151
94	0xbd46ae2a	-0.04850594
95	0xbdaa4616	-0.08314149
96	0xbcb46489	-0.022020595
97	0xbd280474	-0.04101987
98	0xbc9a8493	-0.018862044
99	0x3d035cae	0.032070808
100	0x3d448740	0.047980547
101	0x3c86ce85	0.016455898
102	0xbcc75d99	-0.024336623
103	0xbd0f59a9	-0.034997616
104	0xbca8c114	-0.02059988
105	0x3caa18ce	0.02076378
106	0x3c8c61dc	0.017136507
107	0xbb90efba	-0.004423109
108	0xbcbe41cb	-0.023224732
109	0x3c7e3f2d	0.015517992
110	0x3ce7079a	0.028201867
111	0x3d084b37	0.033274855
112	0xbbd3bf7b	-0.0064620352
113	0x3c9c8d04	0.01911021
114	0x3ce2dd10	0.027693301
115	0x3cfa3bbe	0.030546065
116	0x3cf961dd	0.030442173
117	0x3ce7414b	0.028229376
118	0x3ce8ee17	0.028433843
119	0xbc2e3f1d	-0.010635165
120	0xbcb4b17c	-0.022057287
121	0xba1b93c3	-0.0005934799
122	0xbcab1fd3	-0.020889198
123	0xbd7910e2	-0.060807116
124	0xbc6bb672	-0.01438676
125	0x3b821483	0.0039697303
126	0x3cec397c	0.028836004
127	0x3cd467b8	0.025928363
128	0x3dd412c2	0.1035514
129	0x3cd0d38b	0.025491497
130	0xbc541545	-0.012944524
131	0x3d2b2c55	0.041790325
132	0xbacaa27b	-0.00154598
133	0x3c76183f	0.015020429
134	0x3cf31c7f	0.029676674
135	0x3c1f2012	0.009712236
136	0x3c1ef68a	0.009702334
137	0xbccf44db	-0.025301388
138	0x3d06e12f	0.032929596
139	0x3cf90dcc	0.030402087
140	0x3d0a8f91	0.03382832
141	0x3cdb11f4	0.02674196
142	0xbc913aee	-0.017728295
143	0x3c191f57	0.009345851
144	0xbae71e08	-0.0017632851
145	0x3c1bdd7d	0.009513256
146	0x3ce356f8	0.02775143
147	0x3d04dd68	0.032437712
148	0x3d3da4fa	0.046299912
149	0x3b819344	0.003954323
150	0xbdb84436	-0.08997385
151	0xbd8257b0	-0.06364381
152	0xbce1a061	-0.027542295
153	0xbd4a3227	-0.049364235
154	0xbda8f9c0	-0.08250761
155	0xbe088fe6	-0.13336143
156	0xbd3e1561	-0.046407107
157	0xbcaffbb3	-0.021482324
158	0x3cf3b8e1	0.029751243
159	0xbb45a3e6	-0.0030157506
160	0xbd1b6204	-0.03793527
161	0xbd27da04	-0.0409794
162	0xbcf5da89	-0.030011432
163	0xbbcd65f1	-0.006268256
164	0x3d18cc4f	0.03730422
165	0xbbe4134c	-0.006960308
166	0x3cc4558c	0.023966573
167	0x3c946734	0.018115617
168	0xbcbc0854	-0.02295319
169	0x3c917652	0.017756615
170	0x3ca0a039	0.01960765
171	0x3d2acef7	0.041701283
172	0x3d3005e1	0.042974357
173	0x3e10886e	0.14114544
174	0x3c375d13	0.011191624
175	0xbcaf4400	-0.02139473
176	0xbcaa2a46	-0.02077211
177	0xbdb3aa91	-0.08772767
178	0xbdcd7f46	-0.10034041
179	0xbd949885	-0.07255653
180	0xbd303483	-0.04301883
181	0xbd990c3f	-0.07473039
182	0xbdcb66bb	-0.09931704
183	0xbda1d376	-0.07901661
184	0xbe20dcb9	-0.15709199
185	0xbc982eef	-0.018577067
186	0x3d7f252e	0.062291317
187	0x3d595743	0.053061735
188	0x3cdac425	0.026704857
189	0x3df40414	0.1191484
190	0x3da65fe3	0.08123758
191	0x3d40daf7	0.04708382
192	0x3cfae8ff	0.03062868
193	0x3c86f221	0.016472878
194	0xbcccd9e3	-0.02500624
195	0xbc27f0a5	-0.010250245
196	0x3c0da93b	0.008646305
197	0x3ab308b4	0.001365921
198	0x3c34fe58	0.011046968
199	0x3d8ee60f	0.06977474
200	0x3dd9b620	0.10630441
201	0x3cad4a34	0.021153547
202	0x3bd50429	0.00650074
203	0xbd41715d	-0.047227252
204	0xbde6bc5e	-0.11266397
205	0xbcc2dbe8	-0.0237865
206	0xbce2c765	-0.02768297
207	0xbd6cbaa5	-0.057795186
208	0xbd8e2cd4	-0.06942144
209	0xbe1f18a3	-0.15536742
210	0xbdead171	-0.11465729
211	0xbe096bd9	-0.13420047
212	0xbdb6ef22	-0.0893233
213	0xbd112ed5	-0.035445053
214	0x3d5d5b3a	0.05404208
215	0x3aa37166	0.0012469708
216	0xbbefec30	-0.007321857
217	0xbd392ae6	-0.045206927
218	0x3c76e732	0.01506977
219	0xbb7c7ee9	-0.0038527793
220	0xbc53351f	-0.012891083
221	0x3c2fef98	0.010738276
222	0xbc45916d	-0.012058598
223	0xbcd14346	-0.025544774
224	0xba1eac29	-0.00060528755
225	0x3d206f1d	0.039168466
226	0x3d8c829d	0.0686085
227	0x3d9fbcb8	0.07799667
228	0x3d824ad5	0.06361929
229	0x3c656c36	0.01400285
230	0xbcebabd2	-0.028768454
231	0x3dbebcdf	0.09313368
232	0x3c16f5c9	0.009213873
233	0x3b538d12	0.003228013
234	0xbc567a7b	-0.013090725
235	0xbd66ed62	-0.05637873
236	0xbcdc907b	-0.026924362
237	0xbd84c08b	-0.06482037
238	0xbdaa88b9	-0.08326859
239	0xbd9aa40e	-0.07550822
240	0xbdcf737b	-0.10129448
241	0xbdb7e1ff	-0.08978652
242	0x3c15642d	0.009118122
243	0xbbb76c08	-0.005597595
244	0x3d3deb95	0.046367247
245	0x3d0a60c9	0.033783708
246	0x3d7bd9e1	0.061487082
247	0x3d6a9dc3	0.05727936
248	0xbca26f21	-0.019828381
249	0x3b4efbc0	0.003158316
250	0x3d29669a	0.041357614
251	0xbb28471a	-0.0025677145
252	0xbc68e9fd	-0.014215943
253	0xbbe949e0	-0.0071194023
254	0x3d303c14	0.043026045
255	0x3cbeb044	0.02327741

fc1.bias f4 [128]
0	0xbc1d1efc	-0.009589907
1	0xbc62eaf9	-0.013849967
2	0xbc790b67	-0.015200472
3	0x3c878567	0.016543103
4	0xbc2d2269	-0.010567286
5	0x3bc9039f	0.006134465
6	0x3ca65ede	0.020308908
7	0x3c1992e8	0.009373404
8	0xbc831c33	-0.016004657
9	0xbc95f894	-0.018307008
10	0xbc8a7790	-0.016902715
11	0xbbec6998	-0.007214736
12	0xbc778e41	-0.0151096
13	0xbc3e0a4f	-0.011599137
14	0xbd873923	-0.06602695
15	0xbcad0d73	-0.021124577
16	0xbcb6b070	-0.022300929
17	0xbd278d98	-0.04090652
18	0xbd043a2b	-0.032282036
19	0xbd216e12	-0.03941161
20	0x3cfc9c95	0.030836383
21	0xbc8f5b13	-0.017499482
22	0xbd0cbe95	-0.03436144
23	0x3d1162b4	0.03549452
24	0xbca19616	-0.019724887
25	0x3cfc3e2f	0.03079137
26	0xbd206eb6	-0.039168082
27	0x3c4cb519	0.012494349
28	0xbcede06e	-0.02903768
29	0x3bb6248b	0.0055585555
30	0xbc39c742	-0.011339011
31	0x3cde5922	0.027142111
32	0xbcf20fb0	-0.029548496
33	0x3c962e5d	0.018332655
34	0xbcf8d1cf	-0.030373482
35	0xbc019eaf	-0.007911368
36	0xbcf58d6c	-0.029974662
37	0x3d22dc3a	0.039760806
38	0xbc5ef5fd	-0.013608453
39	0x3cd14aa1	0.025548281
40	0x3d18bb6f	0.037288126
41	0x3bd170b1	0.0063916077
42	0xbd267e5e	-0.040647857
43	0x3b5f5cc5	0.0034082395
44	0xbd0de7fd	-0.03464507
45	0xbb8b1ad5	-0.004245142
46	0xbc8a04a8	-0.016847923
47	0xbc8b1c0e	-0.016981151
48	0x3c1ba8a5	0.009500657
49	0xbd1eb4fe	-0.038746826
50	0x3ac0e2d5	0.0014716039
51	0x3d0060c1	0.03134227
52	0xbb8efe40	-0.004363805
53	0x3cd32b42	0.025777463
54	0xbb98c12c	-0.0046616998
55	0x3ce6c58a	0.028170366
56	0x3bc924d9	0.006138426
57	0xbb0032d7	-0.0019561553
58	0x3b1ed3b7	0.0024235079
59	0x391ec26c	0.00015140482
60	0xbceb704f	-0.028740076
61	0x3b4f556e	0.0031636613
62	0x3c491b2d	0.012274546
63	0xbc803513	-0.015650308
64	0x3ce07552	0.027399693
65	0xbc723f84	-0.014785651
66	0xbccf3818	-0.025295302
67	0x3c113c2c	0.008864444
68	0xbccb0e21	-0.02478701
69	0xbd245748	-0.0401223
70	0x3d08d696	0.03340777
71	0xbce907a0	-0.028446019
72	0xbb5f447c	-0.003406792
73	0x3c6110b8	0.013736896
74	0xbc59f07c	-0.013301965
75	0x3c63cc2b	0.013903658
76	0xbd1949ab	-0.03742377
77	0x3c021b2d	0.0079410495
78	0x3bc27d9b	0.0059353835
79	0x3d252ba4	0.040324822
80	0x3c84d18d	0.016213203
81	0xbd4db515	-0.05022152
82	0x3d6a32d6	0.057177387
83	0x3c628dd7	0.013827763
84	0xba9ef59a	-0.0012127638
85	0x3b6591a3	0.0035029433
86	0xbb7f4646	-0.0038951798
87	0x3cff681b	0.031177571
88	0xbd42b4a3	-0.04753555
89	0xba2f72dc	-0.00066928356
90	0x3ccfde7e	0.025374647
91	0xbc2f4c8b	-0.010699402
92	0xbd6d48ae	-0.05793064
93	0xbc0cc531	-0.008591936
94	0xbc13242d	-0.008980793
95	0xbc34cb6f	-0.0110348305
96	0xbca24c72	-0.019811843
97	0xbca4e36b	-0.020127973
98	0xbb499476	-0.0030758656
99	0xbc139cfa	-0.009009594
100	0xbd4e74d3	-0.05040438
101	0xbb6ecf27	-0.003643939
102	0x3b80e5e3	0.0039336546
103	0xbc9c1502	-0.019052986
104	0x3c129afa	0.008948082
105	0xbcc6697b	-0.024220219
106	0x3cc1a0c2	0.023636226
107	0x3aa3beae	0.001249274
108	0x3cda15b9	0.026621686
109	0x3ce2f085	0.02770258
110	0xbcdb9146	-0.02680267
111	0x3cd0782a	0.025447924
112	0xba15b3ec	-0.00057107094
113	0x3ba42547	0.0050093266
114	0xbb92af37	-0.0044764536
115	0xbd05a85c	-0.032631263
116	0xbd2bce7d	-0.04194497
117	0xbc53b0ad	-0.012920541
118	0xbc0322f5	-0.00800394
119	0xbcef2538	-0.029192552
120	0xbc10fdc6	-0.008849567
121	0x3c87b595	0.016566077
122	0x3d6193ff	0.05507278
123	0x3c69b72c	0.014264863
124	0x3c07589e	0.008260874
125	0xbbd45204	-0.0064795036
126	0xbca58c0f	-0.020208387
127	0x3c6fec10	0.014643684

fc2.weight f4 [64, 128]
0	0x3e1e1b3a	0.15440074
1	0x3d1c2f87	0.038131263
2	0x3d93bc45	0.07213644
3	0xbc208400	-0.009797096
4	0xbd1f04da	-0.038822986
5	0x3cdf94e5	0.027292678
6	0x3d4bf602	0.04979516
7	0xbced95a0	-0.02900201
8	0xbe137da5	-0.14403398
9	0xbcd88c81	-0.026434185
10	0x3be86d1c	0.007093085
11	0xbd3d12d0	-0.04616052
12	0x3cccae1b	0.024985364
13	0x3d009f42	0.03140188
14	0xbce5ec01	-0.028066637
15	0xbdc9922b	-0.098423325
16	0x3dfb66bd	0.12275455
17	0xbd9acbd9	-0.07558412
18	0xbd54f5e5	-0.051992316
19	0xbce4ac21	-0.027914109
20	0x3d315fc4	0.04330422
21	0xbe16b353	-0.14716844
22	0xbca4416b	-0.020050725
23	0x3d31180e	0.04323583
24	0x3dcabb37	0.0989899
25	0xbd0d9528	-0.034566075
26	0xbe0f0a96	-0.13968882
27	0x3e234817	0.15945469
28	0x3d10e230	0.03537196
29	0x3dc75dfd	0.09734724
30	0x3d5597bc	0.05214666
31	0xbe3faed9	-0.18719043
32	0xbd510ded	-0.05103867
33	0xbb15d06c	-0.0022859825
34	0xbc17f28f	-0.009274139
35	0x3cdc865c	0.026919536
36	0x3d36d3f0	0.044635713
37	0x3e0108a0	0.12600946
38	0x3dc4f1cf	0.09616434
39	0x3d993ef5	0.07482711
40	0x3df6c4bc	0.12049243
41	0xbdbf7b9d	-0.09349749
42	0xbc1c9ae6	-0.009558415
43	0x3d7e0249	0.062013898
44	0xbd5b6ec7	-0.053572442
45	0x3d6cbb06	0.057795547
46	0xbc44e5eb	-0.012017707
47	0x3dfd3b81	0.12364865
48	0x3dae9cca	0.08525999
49	0xbd810d01	-0.063013084
50	0x3d9798f2	0.07402219
51	0x3e10eb5c	0.14152282
52	0x3dab8d9d	0.0837662
53	0x3db350ff	0.08755683
54	0x3e432214	0.19055969
55	0xbc86a292	-0.016434941
56	0xbe36d682	-0.17855266
57	0x3e4eb8f3	0.2018774
58	0xbc25c92c	-0.010118764
59	0x3db8c442	0.09021808
60	0x3d8ecf91	0.06973184
61	0x3be18145	0.006881865
62	0x3dfc8580	0.123301506
63	0xbcd92a3a	-0.026509393
64	0xbdf6ab76	-0.12044422
65	0x3d07e0b2	0.03317327
66	0x3d64bd46	0.055844568
67	0x3d83b47b	0.06430908
68	0xbe3d3720	-0.1847806
69	0x3db5fca2	0.088860765
70	0xbda9415f	-0.08264422
71	0x3d5ba18f	0.05362087
72	0x3e461e93	0.193476
73	0x3c46358d	0.012097728
74	0xbb56d7d5	-0.0032782455
75	0x3d82ff62	0.06396367
76	0x3e803e6f	0.25047633
77	0x3aabd6eb	0.0013110315
78	0xbd94d12f	-0.07266461
79	0x3e216c60	0.15763998
80	0x3df6945e	0.120400175
81	0x3b762639	0.0037559404
82	0x3b101aa6	0.002198854
83	0x3d1e19aa	0.038598694
84	0xbd878be9	-0.066184826
85	0x3daa0861	0.083023794
86	0xbd8bdf8e	-0.06829749
87	0xbe0a1d9f	-0.13487862
88	0x3da38b3a	0.0798554
89	0xbd795ef0	-0.060881555
90	0xbcea9be0	-0.02863878
91	0x3de9641e	0.11396049
92	0xbdc1d4f1	-0.094644435
93	0xbd18bd39	-0.03728983
94	0xbdfe02a5	-0.12402848
95	0xbd05e247	-0.032686498
96	0x3c0406d4	0.008058269
97	0xbd5ac13f	-0.05340695
98	0x3a1ed872	0.00060594745
99	0xbcc1d34f	-0.02366033
100	0x3d93ec00	0.07222748
101	0xbd69f34d	-0.057116795
102	0xbc5a0b60	-0.013308376
103	0x3e0fd736	0.1404694
104	0x3b7f314c	0.0038939295
105	0xbdf78baf	-0.120871894
106	0x3e503bdc	0.20335335
107	0x3d82a70d	0.06379519
108	0x3e846cb0	0.25864172
109	0x3cd85b27	0.026410652
110	0x3d705e18	0.058683485
111	0xbd6600eb	-0.05615322
112	0x3d1df30b	0.038561862
113	0x3bf25bfb	0.007396219
114	0x3cb654f0	0.022257298
115	0xbd96dad8	-0.0736596
116	0xbd2c5cef	-0.042080816
117	0xbd036249	-0.032076154
118	0xbca7dc42	-0.02049077
119	0xbd232c5e	-0.039837234
120	0xbca35a21	-0.019940438
121	0xbd880045	-0.066406764
122	0x3ccbd4b1	0.024881693
123	0x3d3ad9ef	0.045617994
124	0x3d8fbdfa	0.07018657
125	0xbdde2cb7	-0.108483724
126	0x3e1c5ec7	0.1527053
127	0xbd858a94	-0.06520572
128	0xbe12e847	-0.1434642
129	0xbd234179	-0.03985736
130	0xbe57d9ab	-0.21079127
131	0xbd227b21	-0.039668206
132	0xbd99cb14	-0.07509437
133	0xbd226fd5	-0.039657433
134	0x3cf3ecba	0.029775966
135	0x3d4b761d	0.04967319
136	0xbcea8c95	-0.028631488
137	0xbd5c8682	-0.053839214
138	0x3dadc6cd	0.08485184
139	0xbc6c994f	-0.0144408485
140	0x3d5ce5b2	0.053929992
141	0x3e0dbe8f	0.13842224
142	0xbcafdd28	-0.02146776
143	0xbd567786	-0.05236008
144	0x3e1082c1	0.14112379
145	0x3d9849e6	0.0743597
146	0xbd943d00	-0.07238197
147	0x3de50efc	0.11184499
148	0x3d8cea48	0.06880623
149	0xbdf16cf3	-0.117883585
150	0x3d98d32f	0.07462155
151	0x3c1e7e8d	0.009673727
152	0xbd4c414a	-0.049866952
153	0x3d9d0272	0.07666482
154	0xbd722b62	-0.059123404
155	0x3ad0f7a9	0.0015942949
156	0x3c84ec02	0.016225819
157	0xbd47433a	-0.048648097
158	0xbcc5bd95	-0.024138251
159	0xbd9fdbc9	-0.078055926
160	0x3d8d2918	0.06892604
161	0x3ae86414	0.0017730021
162	0x3d8f4705	0.06995968
163	0xbdb02186	-0.08600144
164	0x3c0dde62	0.008658977
165	0x3dac2151	0.08404792
166	0x3e0c4f94	0.13702232
167	0x3d2a836c	0.04162924
168	0x3de8a0de	0.11358808
169	0x3dd6d4bd	0.10489795
170	0xbc886844	-0.01665128
171	0xbd927c10	-0.07152569
172	0x3d733d80	0.059384823
173	0x3cefe9fe	0.02928638
174	0xbd95ff7c	-0.073241204
175	0x3c13b09e	0.009014277
176	0x3ddac385	0.10681824
177	0x3bfb2c92	0.0076652253
178	0x3eb8a559	0.3606365
179	0x3ea3955d	0.31949893
180	0x3b05a3cd	0.0020391822
181	0xbd57331a	-0.05253897
182	0x3d087e14	0.033323362
183	0xbd19c981	-0.037545685
184	0xbe5fadf8	-0.21843708
185	0x3d3b02f6	0.04565712
186	0xbdc9f73d	-0.0986161
187	0x3d43a6d7	0.047766533
188	0x3d3f786f	0.046745714
189	0xbde7783e	-0.11302231
190	0xbded221e	-0.11578773
191	0x3bbfe364	0.0058559645
192	0xbddcf09a	-0.107880786
193	0xbda87e27	-0.08227187
194	0xbd9faf34	-0.07797089
195	0x3d940c38	0.07228893
196	0xbe8d496c	-0.2759508
197	0xbd899c8c	-0.06719312
198	0xbd7bf824	-0.061515942
199	0xbc94e226	-0.018174242
200	0xbd99e4d3	-0.07514348
201	0x3e2b29ea	0.16715208
202	0xbcce0d05	-0.025152693
203	0x3d655ccd	0.055996705
204	0xbc952c07	-0.01820947
205	0x3dafa93f	0.08577203
206	0x3dee33c4	0.11630967
207	0x3e221472	0.15828112
208	0x3dd9e360	0.106390715
209	0x3cac5d92	0.021040712
210	0x3e00b019	0.12567176
211	0x3dbeadc1	0.09310485
212	0xbe366517	-0.17812
213	0xbe0183a4	-0.12647873
214	0xbde6e510	-0.11274159
215	0x3c0490e4	0.008091185
216	0xbe05b8de	-0.13058802
217	0xbd837efa	-0.06420703
218	0xbd6bd1e7	-0.057573225
219	0xbe25b391	-0.1618178
220	0xbe6fccb3	-0.2341793
221	0xbb26a198	-0.0025425907
222	0x3c8d3fa1	0.017242255
223	0xbdd7a7f6	-0.10530083
224	0x3ced01d4	0.028931536
225	0x3d880be1	0.06642891
226	0x3d22fe44	0.039793268
227	0x3de4a569	0.11164362
228	0xbdc98e13	-0.09841552
229	0xbd0625b7	-0.03275081
230	0xbdafa299	-0.08575935
231	0xbcde8c70	-0.027166575
232	0xbbdf512a	-0.0068150954
233	0xbc2247e8	-0.009904839
234	0x3baa0e14	0.0051896665
235	0x3e0ce5eb	0.13759582
236	0x3e814091	0.25244573
237	0x3e0ec340	0.1394167
238	0x3c8e98da	0.01740687
239	0x3de0511a	0.10952969
240	0x3d7b7b22	0.061396725
241	0xbd0b1426	-0.033954762
242	0x3d8c8f8a	0.068633154
243	0x3dda48af	0.106583945
244	0x3cd2af5d	0.025718385
245	0xbda9838d	-0.082770444
246	0xbe657d4f	-0.22411083
247	0xbd52bc1f	-0.051448938
248	0x3ddfec8d	0.1093379
249	0x3d95673f	0.07295083
250	0xbd4fd286	-0.05073788
251	0xbc8008c6	-0.015629184
252	0xbe194b90	-0.14970231
253	0xbd26d92b	-0.04073445
254	0xbe33e3e4	-0.17567402
255	0x3ddc5438	0.10758251

fc2.bias f4 [64]
0	0xbdbc4eb8	-0.09194702
1	0x3e0f5647	0.13997756
2	0x3c549db5	0.012977053
3	0x3d623c73	0.05523343
4	0xbc021212	-0.007938879
5	0xbd8da9a1	-0.0691712
6	0xbc55533e	-0.013020335
7	0xbdb2929c	-0.0871937
8	0x3d1b463a	0.03790877
9	0xbddc0f23	-0.107450746
10	0xbc91f7c1	-0.017818334
11	0xbbab956d	-0.005236319
12	0x3c80b062	0.015709106
13	0xbcbba92f	-0.022907821
14	0xbe1a8706	-0.1509057
15	0xbd2beca5	-0.04197373
16	0x3ddbaf3b	0.10726782
17	0x3d41b8cb	0.047295373
18	0x3cd21076	0.025642615
19	0xbdc077ba	-0.09397836
20	0x3d1e77b2	0.03868837
21	0x3dc28e1d	0.09499762
22	0x3cb17775	0.021663407
23	0x3df72196	0.12066953
24	0xbd1ffbe8	-0.039058596
25	0xb9f7df07	-0.0004727768
26	0x3dfc53c7	0.12320667
27	0xbdb22ed8	-0.08700341
28	0xbd892d0e	-0.066980466
29	0x3db6d780	0.08927822
30	0xbd0a4b4b	-0.03376321
31	0x3d345cc2	0.044033773
32	0x3cb668fa	0.022266854
33	0xbc911d92	-0.017714296
34	0x3ce5df9a	0.028060723
35	0xbd953a40	-0.07286501
36	0x3e20104f	0.15631221
37	0x3caee8c4	0.021351226
38	0xbd4018be	-0.046898596
39	0x3d8083eb	0.06275161
40	0xbd8e55a0	-0.069499254
41	0x3dcb731c	0.09934065
42	0x3e11fda3	0.14256911
43	0x3d14926a	0.036272444
44	0x3dfde0d1	0.12396396
45	0x3d6149b2	0.055001922
46	0xbcb8f9c0	-0.022580028
47	0x3d473b59	0.048640583
48	0xbdc623a7	-0.09674769
49	0x3c6a97d8	0.014318429
50	0x3c649514	0.013951559
51	0x3d8251eb	0.06363281
52	0x3cd128f9	0.025532233
53	0x3dc3133f	0.09525155
54	0xbc0a4a17	-0.008440516
55	0x3d07974b	0.03310327
56	0x3cb15251	0.021645697
57	0xbcaefd39	-0.02136098
58	0x3d04693f	0.032326933
59	0xbd381985	-0.044946212
60	0x3d8f555d	0.06998704
61	0xbd2690f5	-0.040665586
62	0xbdace08d	-0.08441267
63	0xbe1b43c7	-0.15162574

fc3.weight f4 [10, 64]
0	0xbcf770b3	-0.030205106
1	0xbe1048ff	-0.14090346
2	0x3dada654	0.0847899
3	0x3dcf1905	0.10112194
4	0xbe6a705d	-0.22894426
5	0x3e189fae	0.14904663
6	0xbdc90bdd	-0.09816716
7	0xbc9b3570	-0.01894638
8	0x3e3fe971	0.18741395
9	0xbe7169d7	-0.23575531
10	0xbded018e	-0.11572562
11	0x3d2e88d9	0.042610977
12	0x3cc15592	0.023600373
13	0xbdf3dd79	-0.11907477
14	0x3e1ea91d	0.15494199
15	0x3deaa6bc	0.11457583
16	0xbe2d80b2	-0.16943625
17	0x3e10b35f	0.14130925
18	0xbd8b3994	-0.067980915
19	0xbde22440	-0.110420704
20	0xbe7327bc	-0.23745626
21	0xbdafb09a	-0.08578606
22	0xbd1e8101	-0.038697246
23	0xbcb801c9	-0.022461789
24	0xbe0940a7	-0.13403569
25	0x3d9f68d7	0.077836685
26	0xbed96ee9	-0.4246743
27	0xbd5eb9ac	-0.05437629
28	0x3dc2b44a	0.09507044
29	0x3cf143ad	0.029451216
30	0x3b40171b	0.0029310647
31	0xbe38107c	-0.17975038
32	0xbdc55c29	-0.09636719
33	0x3d196c72	0.037456937
34	0xbe28be04	-0.16478735
35	0xbd34868b	-0.044073623
36	0x3d6d3c15	0.057918627
37	0x3e24f2ac	0.16108197
38	0xbdfaae29	-0.1224025
39	0xbd5977bb	-0.0530927
40	0x3e2dcd63	0.1697288
41	0xbd297cea	-0.041378893
42	0x3d997b15	0.07494179
43	0x3dfcceda	0.12344141
44	0x3e0a39fc	0.13498682
45	0x3ddba435	0.107246794
46	0xbe833b34	-0.25631106
47	0x3c2418b0	0.010015652
48	0x3e0749e0	0.13211775
49	0x3db33cca	0.08751829
50	0x3d638895	0.055550177
51	0x3a886618	0.0010406403
52	0x3dd4d318	0.103918254
53	0x3dff776b	0.12473949
54	0x3dc15490	0.09439957
55	0x3dfdf5c3	0.12400391
56	0xbe567add	-0.20945306
57	0xbe1c7aac	-0.1528117
58	0x3d212dc3	0.039350282
59	0xbe8df987	-0.27729437
60	0xbdaf8ffd	-0.085723855
61	0xbe98e4c5	-0.29862037
62	0xbdda2768	-0.106520474
63	0xbe4ba1fb	-0.1988601
64	0x3e1a1e8d	0.15050717
65	0xbd89223e	-0.06695984
66	0x3da4bb63	0.08043554
67	0xbe90353d	-0.28165618
68	0xbd79beac	-0.060972854
69	0xbda92916	-0.0825979
70	0x3e0f48b3	0.13992576
71	0xbdad0a72	-0.08449258
72	0xbd475b8f	-0.0486713
73	0x3e19eb4f	0.1503117
74	0x3d8d9713	0.06913581
75	0xbd32f5c6	-0.04369142
76	0xbb582c4a	-0.0032985383
77	0xbc8617f2	-0.01636884
78	0xba9ee9db	-0.0012124138
79	0xbe19b388	-0.15009892
80	0xba5eb408	-0.00084954547
81	0xbe65b94b	-0.22433965
82	0xbe7d148d	-0.24714871
83	0x3db79218	0.08963412
84	0xbe956ea4	-0.29185975
85	0xbe1c2917	-0.1525005
86	0xbdec1ce8	-0.11528951
87	0xbdc9d640	-0.09855318
88	0xbe65c5a8	-0.22438681
89	0x3b5fbfdc	0.0034141457
90	0xbc4686c2	-0.01211709
91	0x3e14db2b	0.14536731
92	0x3d0ec5c7	0.034856584
93	0xbc1c0a0a	-0.009523878
94	0x3e029bb6	0.12754712
95	0xbdb7cd88	-0.08974749
96	0x3af6c0d6	0.001882578
97	0xbe823502	-0.25431067
98	0x3daf4b49	0.085592814
99	0x3e11e0d4	0.14245921
100	0xbe343bee	-0.17600986
101	0x3d1ab642	0.03777147
102	0x3de73177	0.112887315
103	0x3d0dc902	0.034615524
104	0x3d9bb7b2	0.076033965
105	0x3db7136c	0.08939251
106	0xbe71fb19	-0.23630942
107	0xbd766b4e	-0.060160927
108	0xbde7d17c	-0.11319253
109	0x3ded0e48	0.115749896
110	0x3df65b72	0.120291606
111	0xbc65905a	-0.014011467
112	0x3d1038d7	0.035210457
113	0x3dc31302	0.0952511
114	0xbe2c609d	-0.1683373
115	0xbe1cec1f	-0.15324448
116	0x3da1a693	0.078931
117	0xbde994df	-0.11405348
118	0x3dda7210	0.10666287
119	0xbd313cc6	-0.04327085
120	0x3dbe52d2	0.092931405
121	0x3da4ef5f	0.08053469
122	0xbe5e5f0e	-0.21715948
123	0x3e2744b6	0.16334805
124	0x3e24a28d	0.16077633
125	0x3d86bc5a	0.06578894
126	0x3dd671a2	0.104708925
127	0xbd55c978	-0.05219409
128	0x3d860ff9	0.06546015
129	0x3d9bfed0	0.07616961
130	0x3e1bf74e	0.15231058
131	0x3e02013a	0.1269578
132	0xbe071952	-0.13193253
133	0x3da8d6d5	0.08244101
134	0xbe5bcdfb	-0.21465294
135	0xbda2166c	-0.07914433
136	0xbe337e43	-0.17528634
137	0x3dab4526	0.083627984
138	0x3e21a207	0.15784465
139	0xbe48bc7f	-0.19603156
140	0x3ce952f1	0.028481932
141	0xbdb211d8	-0.0869481
142	0xbd9a055a	-0.07520552
143	0x3ce79de7	0.028273536
144	0xbe6212ab	-0.22077434
145	0x3d2ace37	0.041700568
146	0xbe47f055	-0.19525273
147	0x3e2e8a5c	0.17044967
148	0xbe59d3e9	-0.21272244
149	0x3bec72a1	0.0072158133
150	0x3dcd3d2a	0.10021432
151	0x3c569868	0.01309786
152	0x3cad5d20	0.02116257
153	0xbdd185f5	-0.102306284
154	0xbe394aba	-0.18094912
155	0x3e2361b6	0.15955243
156	0x3da68c31	0.08132208
157	0xbe1cc87e	-0.15310857
158	0xbd3c4a2c	-0.045969173
159	0x3dd4eeb9	0.10397095
160	0xbb17d504	-0.0023167739
161	0x3e71bf83	0.23608212
162	0xbcebf127	-0.028801514
163	0xbe614161	-0.21997596
164	0x3d6f2c97	0.058392134
165	0xbe428011	-0.18994166
166	0x3e046995	0.12930901
167	0x3dd9d62c	0.10636553
168	0x3e0197ff	0.12655638
169	0x3e2059f3	0.15659313
170	0xbe8d11d4	-0.27552664
171	0xbe1cca75	-0.15311606
172	0x3daeb889	0.08531291
173	0xbdc88afe	-0.09792136
174	0xbc036d20	-0.008021623
175	0x3dfeb521	0.12436891
176	0xbccaeb31	-0.024770351
177	0xbc6a705a	-0.014309013
178	0xbc399951	-0.011328057
179	0x3d2095c7	0.03920534
180	0x3e1452d1	0.14484717
181	0xbd9f572f	-0.07780301
182	0xbe98b6b9	-0.29826906
183	0x3df267cd	0.11836205
184	0x3e13889d	0.14407583
185	0xbde9de5a	-0.11419363
186	0xbddb0af2	-0.10695447
187	0xbe5283c7	-0.20558082
188	0xbd7e56c6	-0.062094472
189	0x3e31628f	0.17322753
190	0x3d8deee9	0.06930334
191	0xbe912982	-0.2835198
192	0x3da01ae7	0.07817631
193	0x3dd5c008	0.10437018
194	0x3e4c2015	0.19934113
195	0xbd385da6	-0.045011185
196	0xbd38b6ce	-0.04509621
197	0xbe2669c8	-0.1625129
198	0x3e091830	0.13388133
199	0x3db6cdc8	0.089259684
200	0xbe0d5100	-0.1380043
201	0xbee57e53	-0.4482294
202	0xbe49b170	-0.19696593
203	0x3d230ef8	0.039809197
204	0xbc725db1	-0.014792846
205	0xbd082099	-0.033234213
206	0xbdb400d7	-0.08789223
207	0xbe243cad	-0.16038771
208	0xbdb7cd94	-0.08974758
209	0xbe279c0f	-0.16368125
210	0xbe654949	-0.22391237
211	0x3e8811c5	0.26576057
212	0xbe273ca9	-0.16331734
213	0xbd28d9fd	-0.041223515
214	0x3db900d2	0.090333596
215	0x3d4ea94c	0.050454423
216	0x3ddb545e	0.10709451
217	0x3d948e25	0.072536744
218	0x3e52b1cb	0.20575635
219	0x3c3d7ded	0.011565668
220	0x3d872626	0.06599073
221	0xbdff56b3	-0.124677084
222	0x3d1dcc4e	0.03852492
223	0x3dd2ccf1	0.10292996
224	0xbdadf819	-0.084945865
225	0xbdd705a0	-0.1049912
226	0x3e0d3115	0.13788255
227	0x3d6c5b00	0.057703972
228	0x3e1ad5e5	0.15120657
229	0xbe6f6497	-0.23378216
230	0xbda6f98c	-0.08153066
231	0x3ddc904b	0.10769709
232	0xbe74bde6	-0.23900566
233	0x3caa3e67	0.020781709
234	0x3e0352d0	0.12824559
235	0x3e55d369	0.20881428
236	0x3d872fcb	0.06600913
237	0x3e0688de	0.13138148
238	0x3d6e3302	0.058154114
239	0xbd69d80f	-0.057090815
240	0xbe5e684c	-0.21719474
241	0xbdd41f01	-0.10357476
242	0x3daa4191	0.08313287
243	0x3e172a01	0.14762117
244	0x3e17b3e7	0.14814721
245	0x39fb41ef	0.00047923575
246	0xbd0f34a9	-0.03496233
247	0x3bfdf7c8	0.007750485
248	0xbd14a11c	-0.03628646
249	0x3b17d8ef	0.0023170074
250	0x3d9d9c27	0.07695799
251	0xbdc6a754	-0.09699884
252	0xbe6b765f	-0.22994374
253	0xbe0d46e4	-0.13796574
254	0x3ddafebe	0.106931195
255	0xbd819aeb	-0.063283764

fc3.bias f4 [10]
0	0xbcd42896	-0.02589826
1	0x3d8aafd4	0.06771818
2	0xbde043ae	-0.10950409
3	0x3b37ce08	0.0028046388
4	0x3de7396a	0.11290248
5	0x3c69a7cf	0.0142612
6	0x3d43c6f1	0.047797147
7	0xbce87751	-0.028377207
8	0x3d3a40fd	0.045472134
9	0x3de22a4a	0.11043222
